tokens/session-name/Default/optimization_guide_prediction_model_downloads/01d2a9dc-7299-4af7-a56c-9acc1b7e5bcd/model.tflite (tflite, 410364 bytes, 166 tensors)

context_transformer_0/bottleneck_input/norm/add f4 [32]
000000 76 98 0b be 84 cd e5 bc d5 c9 da bd b8 2f 68 3b
       -0.13632378 -0.028052099 -0.10683028 0.0035428833
000010 b2 71 fa 3d 19 5f 30 3e fe 1b 97 3c f8 cc b5 bb
       0.12228717 0.17223777 0.018445965 -0.005548116
000020 c0 26 06 be 9a 81 a5 bc dc 9b 2a 3e 09 3c ad 3d
       -0.1310072 -0.0202034 0.16661018 0.084587164
000030 18 b8 31 3d 20 31 ec bd 50 da 92 bb ce ef c8 3d
       0.043388456 -0.11532807 -0.0044815913 0.09811364
000040 47 7e 71 bb f4 56 52 bd e6 61 8f 3d 80 08 ad 3d
       -0.0036848949 -0.051352456 0.070010945 0.08448887
000050 a6 88 18 be c7 1a 26 3e 5e fa 96 3d 3e dc 03 3e
       -0.14895877 0.16221152 0.073719725 0.12876984
000060 03 a7 df bd 98 bb 11 bb 26 00 a6 3d 02 cc ff bc
       -0.10920527 -0.0022237059 0.08105497 -0.031225208
000070 ed 77 4a 3e b6 ff 29 bd 06 06 0c be 3a d9 1f be
       0.1977231 -0.04150363 -0.13674173 -0.15610209

context_transformer_1/bottleneck_input/norm/add f4 [32]
000000 70 68 7e 3e d4 ad 10 bc 5e 34 5a bd d6 f3 a4 3d
       0.24844527 -0.008830506 -0.053272597 0.080543205
000010 37 f7 38 bc b8 fd 45 bb ef dd 21 3d 00 98 27 be
       -0.011289409 -0.0030211043 0.039518293 -0.16366577
000020 ce 31 32 3e 87 03 10 3d b3 e1 8e 3d db 27 87 3d
       0.17401811 0.035159614 0.069766425 0.06599399
000030 46 f9 aa 3d 3f 08 92 bd 97 1d a7 bd b7 d4 0f 3d
       0.083483264 -0.07130479 -0.08159941 0.03511497
000040 fc 10 17 3e 98 fd af bc 24 5e dc bd 14 13 71 bc
       0.14752573 -0.021483228 -0.107601434 -0.014714021
000050 c7 a1 9e 3c 28 e7 72 3c 28 42 99 3c cd ba 2b bd
       0.01936425 0.01482562 0.018708304 -0.041926194
000060 0d ea 56 bc 0f 4f a7 bd 7c 9f 8a 3e f7 80 33 3c
       -0.0131173255 -0.08169376 0.27074802 0.010956041
000070 78 84 e1 bc 1c db 8e bd ec 52 cc 3d 00 54 ce b7
       -0.027528986 -0.069753855 0.099767536 -2.459623e-05

mention_transformer_0/bottleneck_input/norm/add f4 [32]
000000 af dc 3c 3e f3 23 4c be 36 dd 5b 3d 3d 1d 99 3e
       0.18443559 -0.19935589 0.05367776 0.2990512
000010 b6 94 0a 3d cc af ce bd b8 90 b6 3d 5b 7e 2b be
       0.033833228 -0.10092124 0.08914322 -0.1674742
000020 42 53 58 bd 38 0e 8f 3d 26 f3 39 be 93 34 17 3e
       -0.052813776 0.06985134 -0.1815916 0.14766149
000030 98 54 a9 bd f2 ec 21 3e c9 77 2d 3d 98 85 9a 3d
       -0.08268088 0.15813044 0.042350564 0.07545012
000040 44 af 8c be 28 75 94 3d 50 4c 91 bd 8b d1 a9 3c
       -0.27477467 0.07248908 -0.070946336 0.0207298
000050 de 33 21 3d 22 ca 03 be d0 8e 53 3e 1d e4 a3 3d
       0.039356105 -0.12870076 0.20659947 0.080024935
000060 32 8e ca bd 98 57 00 bd d0 2f 1f 3e 86 26 c1 bd
       -0.09890403 -0.031333536 0.15545583 -0.09431176
000070 7c 4b 86 be 1a 01 67 bd 5c 1f 1b 3e 75 06 98 bd
       -0.26229465 -0.056397535 0.15148681 -0.074231066

mention_transformer_1/bottleneck_input/norm/add f4 [32]
000000 22 4a 90 3d bc 89 f6 bc 51 7d 96 3e f2 81 e3 bc
       0.0704539 -0.030094974 0.29392484 -0.027771924
000010 ed c6 b1 bd d3 f5 95 3d 1c c2 07 bf bf 85 b7 3d
       -0.0868052 0.07322278 -0.5303056 0.08961057
000020 de fe e2 3d 21 13 88 be 80 8f d4 bd 4f 4e 0b be
       0.11083768 -0.26577094 -0.10378933 -0.13604091
000030 67 aa 5d 3d 01 ca 43 3d ff 46 86 be 52 7b 09 be
       0.054117586 0.047800068 -0.2622604 -0.13425949
000040 2a f9 b3 3d c0 4b 87 be 26 b3 88 3e 54 a6 e5 3d
       0.08787759 -0.2642498 0.2669918 0.11213365
000050 77 03 c0 be 6b cb f2 3d ca 19 44 3d f3 67 f3 bd
       -0.37502643 0.11855205 0.047876157 -0.11885061
000060 f8 a1 b0 3d cb 3c 0e be 39 00 9d 3e c9 97 ec bd
       0.08624643 -0.13890378 0.30664232 -0.11552388
000070 28 89 6d bc 97 52 83 be a1 9b 96 bd b4 b5 53 3e
       -0.014498033 -0.2564895 -0.073539026 0.20674783

context_transformer_0/attention/value/add;context_transformer_0/attention/value/einsum/Einsum;context_transformer_0/attention/value/add/ReadVariableOp/resource f4 [32]
000000 de 46 68 bd 7e ee d8 3d 12 e9 7f 3d 52 7b c1 3d
       -0.05670821 0.10592364 0.062478133 0.094473496
000010 e3 4e 8a 3d 9d 70 d3 bd f1 48 15 3d fa f0 8f bd
       0.06753328 -0.10324214 0.036446515 -0.070283845
000020 95 ca 1b 3d 7e 86 31 bd 9e 8c 05 3d 17 ae 66 3d
       0.038034994 -0.043341152 0.032604806 0.05631837
000030 8f 9f 94 3d c9 08 7c bd 06 65 97 3d c8 3a 4c bd
       0.07256996 -0.061531816 0.073923156 -0.049860746
000040 06 38 94 bd 04 1f 9a 3d 70 c2 a4 3d 9d 54 a6 3d
       -0.07237248 0.07525447 0.080448985 0.081216075
000050 3c 16 bb bc c5 61 8b bd 97 65 74 bd 0d 9f 13 bd
       -0.02283775 -0.068057574 -0.059667196 -0.036040355
000060 8a ef 91 bd fe d1 43 bd 29 47 33 bd eb 68 5b bd
       -0.071257666 -0.047807686 -0.043769035 -0.053566854
000070 c2 a1 a4 3c 05 22 20 bd 54 7f 78 bd a0 d6 30 bd
       0.020096663 -0.039094944 -0.060668305 -0.043173432

context_transformer_0/bottleneck_input/norm/mul f4 [32, 32]
000000 ac 29 b8 3d 60 3d e0 bd 09 88 ad bd 21 3e 84 be
       0.08992323 -0.10949206 -0.08473212 -0.2582865
000010 e9 2a c4 3d 4d d3 25 be fd 8c f7 3e 1c 56 03 3f
       0.09578497 -0.16193886 0.48349753 0.5130327
000020 30 5f 3a be 88 f1 76 3d 4a 26 35 3f 99 fd d9 3e
       -0.18200374 0.060288936 0.7076155 0.42576292
000030 cc 3a 6f be e5 cd 08 3e 0c 53 64 3d 71 f0 51 3e
       -0.23362273 0.13359793 0.055743262 0.20501877
000040 6a 7f 17 3e 6b b0 c8 be ff 36 78 3e 54 bf 00 3f
       0.14794698 -0.39197096 0.2423973 0.50291944
000050 3f a2 52 be 01 89 89 be 34 79 2d be 0a 9e 49 3e
       -0.20569704 -0.26862338 -0.16940767 0.19689193
000060 a9 16 27 be bb a4 ac bd ce 81 29 3e 60 63 d2 be
       -0.16317238 -0.08429857 0.16553423 -0.41091442
000070 df ee e1 3e 47 31 74 3e f1 ad 13 be df 75 03 bf
       0.44127557 0.23846923 -0.14421822 -0.5135173
000080 47 97 c9 3d e2 15 15 3e e1 08 9e bd 69 ad d6 3d
       0.09843307 0.14559129 -0.07716537 0.10482294
000090 3d 25 b3 be 9e d7 45 3e 3b e4 e8 3e 18 88 c9 be
       -0.34989348 0.19320533 0.45486626 -0.39361644
0000a0 89 76 b0 3d 84 56 64 be 31 a2 35 3e b3 2b 14 3e
       0.08616359 -0.22298628 0.17737652 0.14469795
0000b0 63 d5 61 be d5 5f 84 3c 04 44 8b 3d 18 dd 2c be
       -0.22054057 0.016158978 0.06800082 -0.16881216
0000c0 56 ee 2e be 6c 65 41 3e 82 f8 ee 3e fe 9c d9 bd
       -0.17083105 0.18886346 0.4667397 -0.10625647
0000d0 25 bd 44 be 93 a2 37 bd 7d 1a 21 3d ef 38 0c be
       -0.19212778 -0.044832777 0.0393319 -0.13693593
0000e0 06 a9 0d be 07 e2 ba 3e d7 73 95 3c b3 72 38 3d
       -0.13834009 0.3650057 0.018243713 0.04503126
0000f0 01 d7 6c 3e 8b 00 d7 3d 1f 29 01 be 78 c2 d5 be
       0.23128892 0.104981504 -0.12613343 -0.4174993
000100 78 b0 c1 3c eb e3 5a 3c 89 26 1c bf a3 0c 47 bd
       0.023643717 0.013360004 -0.609963 -0.048596036
000110 3d 6f b7 be 77 bf 56 3e bb 4f 5e be bb 44 03 bd
       -0.35827056 0.20971476 -0.21710102 -0.03204797
000120 fc 77 a9 bd 88 ce 2d 3d cf 47 de 3e dd ab 64 3d
       -0.08274838 0.04243329 0.4341416 0.055827964
000130 bd 6b 89 bd 29 dc 63 bd 14 d2 95 be 9a b6 0c bd
       -0.067100026 -0.055629883 -0.2926184 -0.03435383
000140 83 31 ee bd cb 4c 63 3d 4c ab 00 3e 0d 51 94 3e
       -0.11630537 0.055493157 0.12565345 0.28968087
000150 ba f3 4c 3e 88 6f fe 3d 5a 26 b6 bd b5 97 5b 3e
       0.2001485 0.12423617 -0.08894034 0.2144459
000160 e3 df 03 bf 83 75 6b 3d 9f 77 12 3e e7 83 53 3c
       -0.515135 0.057485115 0.14303444 0.012909866
000170 1e 4e c3 be 45 17 fa 3d 1b 58 91 bd 90 5f 01 be
       -0.38145536 0.122114696 -0.07096883 -0.1263411
000180 9e 59 68 bd 33 9c bc bd 21 33 3b 3d ab 3d 1f 3d
       -0.05672609 -0.0920948 0.045703057 0.03887717
000190 cd 47 ba bd 8b 75 ad 3d 62 5f 14 be 5f 62 a2 3d
       -0.09095726 0.08469685 -0.1448951 0.07928919
0001a0 95 53 2a 3d e0 24 62 be 72 34 af 3d d5 e0 38 be
       0.041583616 -0.22084379 0.08554925 -0.18054517
0001b0 67 44 92 be 47 c5 69 3c fd 86 bc bd a7 9c 70 bc
       -0.28567812 0.014268226 -0.092054345 -0.014685786
0001c0 f4 8f 1e 3e ee ed c2 bd 5b 8d 13 3d 84 ff e1 bd
       0.15484601 -0.09518038 0.03602348 -0.11035064
0001d0 4b 4d d9 3d bf d5 94 3c d1 f9 9f 3e 96 40 38 3d
       0.106104456 0.018168328 0.31245282 0.04498347
0001e0 52 30 ef 3b 3b 0d 03 bc a0 d6 99 bd 3b 38 36 be
       0.0072994614 -0.00799876 -0.075116396 -0.17794888
0001f0 3b 23 4e be b4 f2 b2 3d e4 9c e9 3d 89 85 fe 3d
       -0.20130627 0.08737698 0.11406878 0.124278136
000200 ba 15 4f 3d 4c 70 bb 3d 68 08 7d be cd 70 3e 3c
       0.05055783 0.09152278 -0.24710238 0.0116235735
000210 f9 1a f5 be 7f 60 a4 be c9 c9 94 be f8 aa 89 3d
       -0.4787214 -0.3210487 -0.290602 0.06722063
000220 4e 92 8f 3d 02 20 35 be 4a 7b 20 be 36 95 6a be
       0.07010327 -0.17687991 -0.15672031 -0.22908482
000230 a1 a8 e7 bd c5 ef f4 3c 9c 64 a5 3d 7f 49 59 3d
       -0.1131146 0.029899487 0.0807583 0.053048607
000240 6b 0d 0f bd db 9a 4f bd db 51 88 3e 41 64 ab 3e
       -0.034924906 -0.05068479 0.2662495 0.33474925
000250 9f 19 43 be 29 29 a1 3e 54 52 65 3d 18 99 bc 3d
       -0.19052742 0.31476715 0.055986717 0.09208888
000260 4a 21 93 bd de 5f d7 bd d9 6e aa bd 10 97 c0 3d
       -0.07184084 -0.10516332 -0.08321924 0.09403813
000270 87 6e 0f 3e c8 23 8a 3e 1d 89 6d bd e7 91 02 3e
       0.14007007 0.26980424 -0.05799209 0.1275097
000280 87 28 a1 3e ac 80 23 be a5 2f b4 3e 67 29 83 3e
       0.31476232 -0.15967053 0.351926 0.25617525
000290 5c 7f b0 be 66 19 8d be 8a fc 85 3e d1 36 27 bd
       -0.34472167 -0.2755844 0.26169235 -0.04082376
0002a0 eb 31 d5 3e 51 bc a7 bd 8a fa d8 3d ac 20 95 3d
       0.41639647 -0.081902154 0.105946615 0.07281622
0002b0 72 64 79 3e 21 85 91 be 2e 77 f7 bc 61 6c cf be
       0.24354723 -0.28421882 -0.030208196 -0.40512374
0002c0 76 82 4d bc af 9e 23 bc 98 93 44 3e 5b 6c cf be
       -0.012543311 -0.009986564 0.19196928 -0.40512356
0002d0 86 8e 2a be 39 d2 f9 3d 95 87 cd 3d c8 64 e7 be
       -0.16655931 0.121983 0.10035626 -0.45194077
0002e0 97 04 22 bd a6 f7 b1 be b7 eb a4 3e 05 3f 76 be
       -0.03955516 -0.34759253 0.32211086 -0.24047478
0002f0 a2 d4 5e 3e 08 bb 69 bd af 0d e4 be 74 6b 9a 3d
       0.217608 -0.057063133 -0.4454169 0.07540026
000300 9e c6 ef 3d 21 e0 47 3e aa af 50 bd 47 4e a8 3d
       0.11707805 0.19519092 -0.050948776 0.08218055
000310 22 72 6c be 94 ff 44 3d 66 bc c7 bd 41 0c 94 3d
       -0.23090413 0.0480953 -0.09752731 0.072289
000320 ff 82 ab 3d ac 9c e6 bd a3 58 16 be 6a f3 1e bd
       0.08374595 -0.112603515 -0.1468225 -0.038806356
000330 d4 e7 d9 3d 26 80 b7 bd 05 44 6b 3c 3f b8 ef bc
       0.10639921 -0.08959989 0.014359479 -0.02926266
000340 f6 3b 50 3e 17 46 b4 3d b1 e7 3a bd b5 c1 ce bd
       0.20335373 0.08802431 -0.045631114 -0.100955404
000350 3d bc 2f bd 85 c1 6e 3d f8 d6 4a be 19 f2 61 be
       -0.042904127 0.058290023 -0.19808567 -0.22065009
000360 1a 30 fa bc 79 c1 6f 3d df a3 b3 3d cd 35 5e bc
       -0.030540515 0.05853412 0.0877149 -0.013562632
000370 28 9c 6f bd 12 d9 03 bd e0 68 14 bd 37 24 04 3c
       -0.05849853 -0.032189436 -0.03623283 0.008065275
000380 1a da 5a 3e 71 23 84 bc 69 09 89 3d 58 38 76 bd
       0.21372262 -0.016130181 0.06691248 -0.060112327
000390 14 c3 e5 3d bb 04 d1 3e ab 12 8e bd 12 48 1c be
       0.11218849 0.40823922 -0.069371544 -0.15261868
0003a0 d5 6b 16 3d 7d 10 76 be 1c 8d 32 3e 36 c3 08 be
       0.03672393 -0.24029727 0.17436641 -0.13355717
0003b0 61 43 ae be 30 7f 6a bd b0 cf 13 bd 73 27 43 bd
       -0.3403578 -0.0572502 -0.036086738 -0.047645044
0003c0 95 70 cc bd ee ef df bd ef 54 98 bd 1e 16 dc 3c
       -0.09982411 -0.10934435 -0.07438075 0.026866015
0003d0 00 1e bb 3d 1d 15 d8 bd 09 46 8b 3d 47 63 4e be
       0.091365814 -0.10550902 0.068004675 -0.20155059
0003e0 3b 17 46 3e 79 09 a7 3d 4b c4 1f be 4e 4c 45 be
       0.19344799 0.08156104 -0.15602224 -0.19267389
0003f0 af 2d 26 be d4 84 92 bc dc 57 b8 3d e4 c0 b4 3e
       -0.16228364 -0.017885603 0.09001133 0.35303414

context_transformer_0/kq_shared_bottleneck/norm/mul;context_transformer_0/kq_shared_bottleneck/norm/add;context_transformer_0/attention/key/einsum/Einsum;context_transformer_0/attention/key/add;context_transformer_0/attention/value/einsum/Einsum;context_transformer_0/attention/key/add/ReadVariableOp/resource f4 [32]
000000 10 7e 0c 3d 3b 96 b0 3d 30 cc 4d 3c f3 dc 09 bd
       0.03429991 0.08622404 0.012560889 -0.03365798
000010 22 f9 81 bd 9a 24 60 bd d3 c1 8d 3d 84 0b 10 bd
       -0.063463464 -0.054722406 0.06921735 -0.035167232
000020 9e 07 8a 3e 02 de 45 bc 2d 82 23 bc 64 dc cc bc
       0.26958936 -0.012076857 -0.009979767 -0.025007434
000030 0e fc d6 3b 78 2c 69 3c b3 33 01 bc 4a 27 36 bc
       0.006560809 0.014231794 -0.007885861 -0.011117766
000040 53 30 07 3e 26 94 83 bd a4 c7 85 3d 4e 98 49 bd
       0.13202028 -0.064247414 0.06532219 -0.049217515
000050 9d ac b2 3d b7 e0 94 bd c5 89 f9 bd b6 9a 42 be
       0.087243296 -0.072694235 -0.121844806 -0.1900433
000060 96 0e e9 3d 74 7b 40 3e 95 20 8e 3d 6a df 95 bd
       0.11379735 0.18797094 0.06939808 -0.073180035
000070 04 52 b1 3d c1 25 dc bd 67 9e cc 3d 58 b1 21 3e
       0.08658221 -0.107493885 0.0999115 0.15790308

context_transformer_0/kq_shared_bottleneck/norm/mul;context_transformer_0/kq_shared_bottleneck/norm/add;context_transformer_0/attention/key/einsum/Einsum;context_transformer_0/attention/key/add;context_transformer_0/attention/value/einsum/Einsum;context_transformer_0/attention/key/add/ReadVariableOp/resource1 f4 [32, 32]
000000 86 65 9e bd 0f eb 8e bd 4d 9c 7e 3d 06 45 a2 bc
       -0.07734208 -0.069784276 0.06216078 -0.019808304
000010 1c f9 e3 bd 1c b8 0e be dd ea 0b 3d e7 4c 62 3e
       -0.11131498 -0.1393742 0.03415953 0.22099648
000020 48 d6 01 3e 87 4e 17 3e a9 f4 e4 bd 70 3d 10 be
       0.12679398 0.1477605 -0.11179478 -0.14085937
000030 30 30 41 bb 08 22 8d 3c 5d 6d 53 3d 59 62 d9 3d
       -0.0029478185 0.017228141 0.05161797 0.106144615
000040 81 09 dd 3d 09 db 8b bd 68 d0 be bb 1d 0a 4f bb
       0.10792828 -0.06828887 -0.005823184 -0.0031591721
000050 b4 df 6d bd b1 65 9d 3d 55 10 6b 3d 39 84 cb bd
       -0.058074668 0.07685412 0.057388622 -0.09937329
000060 8a d6 eb 3d 37 bf 35 be 6d f9 b9 bd 69 94 5b be
       0.115155295 -0.17748724 -0.09080777 -0.21443333
000070 95 4f 4b 3c bb cd ed bc 39 61 8d bd b4 04 e6 bd
       0.012409111 -0.029028764 -0.069033094 -0.11231366
000080 63 cd 54 3c 65 f0 a9 bc a9 90 0a 3c ce 68 24 3d
       0.012988421 -0.020744512 0.008457341 0.040139012
000090 2d 85 37 bd 8a 11 72 be 41 42 ac 3d 3c 3b 7d 3d
       -0.04480474 -0.23639503 0.084110744 0.06182407
0000a0 40 a2 df 3c 95 6c e9 3e cb 2a 19 bd 05 1b 0c bd
       0.027299047 0.45590654 -0.037394326 -0.034205455
0000b0 4c 84 11 bc 44 cf ec 3b 54 f0 59 bb 3c 72 8b 3d
       -0.00888164 0.0072268564 -0.003325482 0.06808898
0000c0 91 8f a0 3c fc e8 9a bd 6c 01 2b 3d 70 12 ff bc
       0.019599708 -0.075639695 0.041749403 -0.031136721
0000d0 7b b0 ec 3b 22 b2 52 3c 0c 23 f8 3d 06 e5 1c be
       0.0072231865 0.012859853 0.1211606 -0.1532174
0000e0 d1 f1 6f 3c 7f 1b bf be 4f 34 e1 bd bd 32 f5 be
       0.014645056 -0.37325665 -0.10996305 -0.47890273
0000f0 7f ab 19 bd 3c 19 84 b6 63 c2 bb bb 19 17 49 bd
       -0.037517067 -3.936844e-06 -0.00572996 -0.049094293
000100 be 03 b4 bd 3d 2e 40 bd 62 ab bd 3d 32 8f 8e 3c
       -0.08789776 -0.046919096 0.09261204 0.017402265
000110 bc 41 0d be 63 78 01 be d9 71 08 3c 17 e1 8a 3e
       -0.13794607 -0.1264358 0.008327925 0.27124855
000120 68 e5 01 3e 59 ce 23 3e 8c cd cb bd 5a c5 02 be
       0.12685168 0.15996684 -0.09951314 -0.12770596
000130 84 cd 8f 3c 19 22 e4 bc 66 11 4d 3d c4 2e 03 3e
       0.017554052 -0.02784829 0.05006542 0.12810808
000140 f8 4f f5 3d db e8 b9 bd 41 c4 40 bb 86 48 e3 bc
       0.119781435 -0.09077617 -0.0029413851 -0.027744543
000150 2a a0 68 bd d2 aa b9 3d 9b a0 86 3d 0a d7 c9 bd
       -0.05679337 0.090657845 0.06573602 -0.098554686
000160 44 f7 ca 3d 8f fd 30 be 12 f8 cf bd a7 f0 39 be
       0.099104434 -0.17284225 -0.101547375 -0.18158208
000170 2f 30 23 3b 18 62 1e bd 04 b0 40 bd 33 dd 01 be
       0.0024900546 -0.03866777 -0.04704286 -0.12682037
000180 f6 47 ba 3d 9f d0 19 3b c7 b5 b1 3b 67 3d c2 3b
       0.09095757 0.0023470295 0.005423281 0.00592773
000190 61 fb 96 3d f0 f5 19 3e cf b3 39 bd 1b 1e 45 be
       0.073721655 0.15035224 -0.045337494 -0.19249766
0001a0 f2 e9 89 bd 4b a9 54 be cf 56 80 3d 7a 4c f6 3d
       -0.06734075 -0.20767705 0.062665574 0.120263055
0001b0 4a 2f a8 3c 0b cc 50 3c a5 41 17 bd 60 88 b8 bd
       0.020530362 0.01274396 -0.036927838 -0.090103865
0001c0 34 ba 98 bd b3 2d 69 3d 25 2d ff bc 42 6e 0d 3d
       -0.074573904 0.056928348 -0.031149456 0.03452898
0001d0 df b6 69 3d 07 23 0b bd 0b 4c 91 bd ff 72 99 3d
       0.057059165 -0.03396895 -0.07094582 0.07492637
0001e0 c2 b9 5e bd 3e ff 53 3e e3 90 63 3d 41 0a 83 3e
       -0.05437637 0.20702836 0.055558097 0.2559376
0001f0 09 22 80 3c 4f a2 f2 3c 1a 35 da 3c 2f 72 a4 3d
       0.01564123 0.02961841 0.026636649 0.08029591
000200 17 2a 32 3d 84 2b 2a bc 6a 96 c5 bc 67 9b 86 3b
       0.04349717 -0.0103863515 -0.024119575 0.004107881
000210 e3 c5 66 3d e0 cd 23 3e 47 95 96 bd 22 62 07 be
       0.056341063 0.15996504 -0.07352691 -0.13221028
000220 4e 56 5d bd 7b 52 ae be 29 18 8d 3d 2d 25 ad 3d
       -0.054037385 -0.34047303 0.06889374 0.08454356
000230 65 dd 7c 3c f2 c2 38 3c 74 a2 3c bc c8 8a ca bd
       0.015433644 0.011276947 -0.011513341 -0.09889752
000240 d0 e1 8f bd b5 48 88 3d 70 65 1a bd 95 fc 27 bc
       -0.07025492 0.06654493 -0.037694395 -0.010253091
000250 60 a1 28 3d 1c 45 28 bd d8 e6 f5 bd 29 8a 9a 3d
       0.041169524 -0.041081533 -0.120069206 0.07545883
000260 31 55 56 bd 36 04 8a 3e 0e db 92 3d 38 0c be 3e
       -0.05232734 0.26956338 0.071706876 0.37118697
000270 01 dc 10 3d b9 0f 24 3c 3b dc b3 3c ef 8c aa 3d
       0.035366062 0.010013514 0.0219556 0.08327662
000280 5b 87 8a 3d 47 97 19 bb ee 04 0f bc 86 57 fe bc
       0.06764098 -0.0023436116 -0.008729203 -0.031047594
000290 5e 3a 72 3d 46 71 3a 3e fc 3a 35 bd 6d 1f 2b be
       0.059137695 0.18207273 -0.044245705 -0.16711207
0002a0 29 7a 06 bd 03 a6 8d be b3 0b 60 3d 8f ff 97 3d
       -0.032831345 -0.2766572 0.054698657 0.07421791
0002b0 cb 07 87 bc 6c 09 4a bc 5a 50 cd bb 26 8c c1 bd
       -0.016483208 -0.012331348 -0.006265682 -0.09450559
0002c0 45 a9 9f bd 17 69 a6 3d f8 59 3b bc 77 ba b7 3c
       -0.077959575 0.08125513 -0.011435024 0.02242778
0002d0 ad 49 06 3d c6 52 03 bd cb bb c3 bd 68 d9 e2 3d
       0.032785106 -0.03206136 -0.09557303 0.11076623
0002e0 a5 04 2e bd 2e 13 85 3e c8 1c 4c 3d 78 85 ab 3e
       -0.042484898 0.25991195 0.049832135 0.33500266
0002f0 31 99 87 3c 7c b9 1f 3d bc 1d 27 bc 27 47 7e 3d
       0.01655254 0.03899525 -0.01019996 0.062079575
000300 29 b4 16 bd d1 d8 23 bd e9 64 15 3d 74 15 90 bc
       -0.036792908 -0.040001694 0.03647319 -0.017588355
000310 11 db b4 bc 95 ef 3a be e0 32 f1 3c 2e 9b 03 3e
       -0.022077115 -0.18255456 0.029443204 0.12852165
000320 71 70 8e 3d 56 f7 85 3e 9f 9b 20 bd aa 4e 9b bd
       0.0695504 0.26165265 -0.03921091 -0.07583363
000330 fa 5b 18 3c 1a e1 03 ba e0 81 1a 3c 46 8d ce 3d
       0.009299273 -0.0005030796 0.009430379 0.100855395
000340 7d bd 5e 3d f4 f7 a3 bd 0a 4c 39 3d a5 bb 85 3b
       0.05437993 -0.08006278 0.045238532 0.004081207
000350 f9 79 af bc b8 0a 45 3d b3 9f c5 3d 6d 4d fd bd
       -0.021420466 0.048105925 0.09649601 -0.123682834
000360 bf 92 07 3d 03 48 82 be 2e 3c 7a bd c4 0e a7 be
       0.033098932 -0.25445566 -0.061092548 -0.32628453
000370 92 2c 21 bd c7 e6 c7 bc 55 1a e8 b9 44 91 bd bd
       -0.039349146 -0.024402035 -0.00044270107 -0.09256223
000380 9d 56 c2 3d e9 47 74 3d 7a 5b 9b bd 84 9b 0e bd
       0.094891764 0.05963889 -0.07585807 -0.03481628
000390 bc 0d c2 3d f9 5d f7 3d 06 15 2e bd f6 bc 66 be
       0.09475276 0.12078471 -0.04250052 -0.2253302
0003a0 51 8e e4 bd 39 e5 37 be 2a 43 cf 3d 71 e6 14 3e
       -0.11159957 -0.17958535 0.101202324 0.14541031
0003b0 72 c0 5b bc 04 e1 70 bc 11 0b 09 bd 6c 06 00 be
       -0.013412582 -0.014702085 -0.03345782 -0.1250245
0003c0 ab aa a0 bd 46 d6 ba 3d 1d 15 8e 3a e1 f4 d8 3c
       -0.07845052 0.09122901 0.0010840032 0.026483955
0003d0 11 21 52 3d 73 e4 a4 bd 26 fa 64 bd b7 8b 5a 3d
       0.051301066 -0.08051386 -0.055902623 0.0533559
0003e0 c3 cb ce bd 46 da 29 3e c7 3a c7 3d 91 94 3a 3e
       -0.10097458 0.16587171 0.09728008 0.18220736
0003f0 4b be f6 3a 60 6a 7a 3d f2 9c 6b 3d 7b 44 fb 3d
       0.0018825022 0.061136603 0.05752272 0.12268921

context_transformer_0/kq_shared_bottleneck/norm/mul;context_transformer_0/kq_shared_bottleneck/norm/add;context_transformer_0/attention/query/einsum/Einsum;context_transformer_0/attention/query/add;context_transformer_0/attention/value/einsum/Einsum;context_transformer_0/attention/query/add/ReadVariableOp/resource;context_transformer_0/attention/Mul;context_transformer_0/attention/Mul/y f4 [32]
000000 7a 1a 99 bc a7 38 51 bd f9 d9 a8 bc 93 a4 28 3c
       -0.018689383 -0.05107942 -0.02061175 0.010293144
000010 47 03 90 3c 01 cb 90 3c 22 80 17 bc 20 c8 dc 3c
       0.017579688 0.017674925 -0.009246858 0.026950896
000020 b7 c2 9f be ec 64 b3 bd 59 7b a4 3d c3 6e eb 3d
       -0.31203243 -0.08759484 0.08031339 0.114957355
000030 7e e3 d0 bd 7b 68 6b 3d b6 71 8e bd 7d 19 d2 3d
       -0.10199641 0.057472687 -0.069552824 0.10258768
000040 5e db f8 bc 60 47 6e bd 8b d7 4a 3d 71 8b 90 bd
       -0.03037804 -0.058173537 0.049521964 -0.07057846
000050 4a 89 1e 3d 79 a5 14 bd 22 90 d2 3b 22 d1 46 3e
       0.038705148 -0.03629062 0.0064258734 0.19415715
000060 70 03 0c be 2a 59 2d be 0a e6 b4 bd 26 d7 de 3d
       -0.13673186 -0.16928545 -0.08832939 0.1088088
000070 61 16 ec bd 7b 9e 06 3e 86 fe f8 bd 91 ca 0a be
       -0.11527706 0.13146393 -0.121579215 -0.13553835

context_transformer_0/kq_shared_bottleneck/norm/mul;context_transformer_0/kq_shared_bottleneck/norm/add;context_transformer_0/attention/query/einsum/Einsum;context_transformer_0/attention/query/add;context_transformer_0/attention/value/einsum/Einsum;context_transformer_0/attention/query/add/ReadVariableOp/resource;context_transformer_0/attention/Mul;context_transformer_0/attention/Mul/y1 f4 [32, 32]
000000 50 fc 89 3c 4f d2 a1 3c f7 70 30 bc 63 79 5c 3b
       0.016843945 0.019753603 -0.01076912 0.0033641688
000010 5f 16 2f 3d 21 cb 61 3d 65 39 bd bb 11 23 ea bc
       0.042745944 0.05512536 -0.005774664 -0.028581174
000020 50 20 bd bc 29 5e 1d be d2 2f cf 3c c4 8c cf 3c
       -0.023086697 -0.1536795 0.025291357 0.025335677
000030 2d 39 a0 bc b5 eb b7 bc ad 82 f3 bc 67 6f ef bc
       -0.019558514 -0.022451261 -0.029725397 -0.029227925
000040 20 28 bf bc a6 d6 2b 3d 1e 31 1a 3c f6 b1 6c 3b
       -0.023334563 0.04195275 0.0094111245 0.0036116815
000050 58 c2 00 3d 79 9f 00 bd bf ea cd 3c 79 c8 a2 3d
       0.03143534 -0.031402085 0.02513635 0.079483934
000060 64 ae b1 bc 95 f6 dd 3d 96 72 0b 3d 0d 81 d3 3d
       -0.021689601 0.108380474 0.034044825 0.10327349
000070 b5 58 b1 bc b1 e6 5c 3b 50 d4 d0 3c 7c d0 b8 3c
       -0.021648744 0.0033706839 0.025491863 0.02256035
000080 0f 30 a9 3d 36 36 43 3d 93 20 44 bc 0c 6c 7d bd
       0.082611196 0.04765912 -0.011970657 -0.06187062
000090 e4 e4 16 3d 90 aa 09 bd 9d 0c 9c 3d e4 45 e6 bc
       0.03683938 -0.033609927 0.07619593 -0.028109498
0000a0 7e 71 3a bc b2 a1 00 be 58 04 db 3b a6 b6 0d 3c
       -0.011379598 -0.12561682 0.0066838674 0.008649504
0000b0 24 a6 9a bd cb 70 8d bd 1d e7 90 bc cc 06 92 bd
       -0.0755122 -0.06906279 -0.017688328 -0.07130203
0000c0 63 c5 ec bc 1f 0e aa 3d 5f c2 4a 3d 50 85 83 3d
       -0.028902715 0.08303475 0.049501773 0.06421912
0000d0 ae e8 95 3d df 58 98 bd 0f 80 ba 3d 17 dc 9d 3d
       0.07319771 -0.07438826 0.091064565 0.077079944
0000e0 66 40 80 bc c5 7d 62 3d 51 0a 17 3d 81 bf 82 3d
       -0.015655708 0.055295724 0.036875073 0.06384183
0000f0 59 ce 9c bd 12 0e 68 3d 2a 26 6a 3d 4e 4a d7 3b
       -0.07656545 0.056654043 0.057165302 0.006570137
000100 12 8d 61 3c 08 15 22 3c ac f9 ee bc eb 5d 5d 3c
       0.013766544 0.00989271 -0.029171787 0.013511161
000110 3c 9a 2f 3d 00 a6 82 3d 86 94 25 ba 48 33 a9 bc
       0.0428717 0.06379318 -0.0006316382 -0.020654336
000120 3e 70 be bc f1 c2 0a be b1 95 d8 3c d3 c8 b6 3c
       -0.02324688 -0.13550927 0.026438566 0.022312557
000130 32 0c cc bc 95 cd cd bc 31 f4 05 bd b1 95 30 bd
       -0.024908159 -0.025122443 -0.032703582 -0.043111507
000140 4c 46 ae bc e9 f1 2a 3d 7d 0d 69 3c d1 06 bf 3b
       -0.021273755 0.04173461 0.014224407 0.00582967
000150 3a a8 f0 3c 11 bb 00 bd ab 00 86 3c ad 4a be 3d
       0.029377092 -0.0314284 0.01635774 0.09291587
000160 e9 d7 da bc e0 83 db 3d c9 5f 3c 3d f4 4e e7 3d
       -0.026714282 0.107185125 0.045989785 0.11294356
000170 d0 43 19 bc 71 4a ad 3c bb ff 37 3c 61 eb bf 3c
       -0.009354547 0.02115366 0.0112304045 0.023427667
000180 5d 9f bd bc 17 ad 85 bc fc 97 5c 3c c7 74 20 3c
       -0.02314728 -0.016317887 0.01346397 0.009793467
000190 dd 6f 41 bd 9a 36 d6 bc 4c 10 1d bc 21 42 85 3c
       -0.04722582 -0.026149083 -0.009586405 0.016266884
0001a0 3f cc 5b 3c a4 97 04 3e 7a 3b a5 bc d9 7d a1 bb
       0.013415395 0.12948471 -0.020169962 -0.0049283323
0001b0 f6 71 80 3c 5b 54 e3 3c 72 1c a2 3c 02 2f 2b 3d
       0.01567934 0.027750185 0.019788954 0.041792877
0001c0 41 79 8b 3c 0e 11 ed bc c6 02 36 bb b8 af ac bc
       0.017025592 -0.028938796 -0.002777265 -0.021079883
0001d0 2e 33 0d bd bc da 09 3d 34 cb df bc c5 92 96 bd
       -0.034472637 0.033655867 -0.027318574 -0.07352213
0001e0 51 41 67 3a 4e 0b d0 bd cf 98 28 bd 88 41 92 bd
       0.00088216836 -0.10158406 -0.041161355 -0.07141405
0001f0 f9 22 b7 3c ed 86 20 bc 76 72 6b bc 93 ef 01 bc
       0.022355543 -0.009797794 -0.014370551 -0.007930654
000200 79 f1 2b bd ac b6 d0 bc a2 9b a6 3c ff 4e 10 3d
       -0.041978333 -0.02547773 0.020337883 0.035231587
000210 45 f5 1a bd 6c 55 ea ba 7b e0 0c bd ce 2e 2c 3c
       -0.037831564 -0.0017878241 -0.03439377 0.010509206
000220 3f bb 0a 3d 1a 1c 08 3e 31 44 bd bb e1 98 84 bc
       0.033869978 0.1329197 -0.0057759513 -0.01618618
000230 85 81 ee 3c 29 ba 31 3d fb 90 78 3c 6b 68 20 3d
       0.029114494 0.043390427 0.015171285 0.03916208
000240 b5 75 ba 3c 8b f7 4a bd 1f fe c3 bc 0c 37 0f bd
       0.022761205 -0.04955248 -0.023924885 -0.034964606
000250 3b 57 5a bd ab e9 49 3d e1 60 61 bd 0b 58 ac bd
       -0.053305846 0.04929511 -0.05502403 -0.0841523
000260 38 6f 2a 3c fe 94 ac bd 1e 15 28 bd c3 37 ae bd
       0.010402493 -0.084268555 -0.041035764 -0.085067295
000270 3f 25 0a 3d 2d 20 b5 bc 2b cd 07 bd 38 73 ad bb
       0.033726927 -0.02211007 -0.033154648 -0.005293276
000280 16 cb 06 bd d1 54 c8 bc e9 25 e0 3b ee c9 b2 3c
       -0.03290852 -0.024454506 0.0068404567 0.021824803
000290 44 1a 3d bd 5b 0d bb bc 29 dd 25 bd c6 88 a4 3c
       -0.046167627 -0.022833517 -0.040494118 0.02008475
0002a0 a3 73 90 3c 7c 0b 03 3e 12 91 a1 bc 5e 02 65 bc
       0.017633265 0.1279735 -0.019722495 -0.013977615
0002b0 11 e6 04 3d d7 64 e8 3c 0a 6f 6f 3c 81 b8 48 3d
       0.03244597 0.028368397 0.014613876 0.04900408
0002c0 b0 89 1d 3c 0b 09 3b bd a2 13 46 bc 3d 4d 1a bd
       0.009615347 -0.04566292 -0.012089642 -0.037671316
0002d0 f8 71 21 bd b1 a5 37 3d d1 b4 2d bd 93 9a a4 bd
       -0.03941533 0.04483575 -0.042408768 -0.08037295
0002e0 2a 84 cd 3b 5d 0b bc bd 39 c8 d1 bc 8c b5 ad bd
       0.0062718587 -0.09181855 -0.025608169 -0.08481893
0002f0 e9 e7 07 3d 8c aa 95 bc 53 8d cf bc 1b 87 08 bc
       0.03318015 -0.0182698 -0.025335943 -0.008332993
000300 43 cf c6 3c 22 bc 96 3c b9 66 0b bc 6c 62 ae bc
       0.024268752 0.018400256 -0.008508378 -0.021287166
000310 48 61 03 3d 18 44 0c 3b ff b2 39 3d c8 cd 95 bc
       0.032075197 0.0021402892 0.04533672 -0.0182866
000320 1c 80 9a bc 96 55 01 be c5 ab 98 3c 75 14 86 38
       -0.018859915 -0.12630305 0.018636594 6.393428e-05
000330 12 fb 23 bd 14 30 05 bd 93 b1 e7 bc 04 a5 20 bd
       -0.04003436 -0.032516554 -0.028282916 -0.03921987
000340 21 ca 8a bc 1b e7 2c 3d 6c 76 73 3c a8 da 08 3d
       -0.016942086 0.042212587 0.014859777 0.03341165
000350 5f 55 09 3d bb 6a 16 bd 0c 22 32 3d b8 a8 ad 3d
       0.03352868 -0.03672288 0.0434895 0.08479446
000360 dc 87 23 bc 76 37 b4 3d 1a 30 d5 3c 7a 3c b3 3d
       -0.009981122 0.08799641 0.026023913 0.08751769
000370 52 36 06 bd f0 22 b4 3c 34 08 c7 3c 45 50 5a 3c
       -0.032766648 0.021989316 0.024295904 0.013324802
000380 55 36 bf bc c3 9d ac bc e9 88 24 3c 41 2d 40 bc
       -0.023341337 -0.02107132 0.010042408 -0.011729539
000390 fa 86 1c bd 1a 8a 78 bd 4c 42 5a ba 5e 4a 21 3c
       -0.03821466 -0.06067858 -0.0008325919 0.009844391
0003a0 44 52 8c 3c 29 61 14 3e 2d e0 dd bc 9c 87 75 bc
       0.017129071 0.14490189 -0.027084434 -0.014985945
0003b0 02 d6 bf 3c a4 9e 88 3c 6c fc a7 3c 5e 6d 0e 3d
       0.023417477 0.016677208 0.020506106 0.03477227
0003c0 b7 64 83 3c 22 92 25 bd 84 ec 1e bc c7 31 e9 bb
       0.016039236 -0.040422566 -0.009699944 -0.0071165296
0003d0 a9 97 c1 bc 45 38 1f 3d 64 6f 91 bc 36 5d a2 bd
       -0.023631888 0.038872022 -0.01775331 -0.07927935
0003e0 b1 1c a6 3c 43 e4 f5 bd b0 a4 d9 bc 77 44 d5 bd
       0.020277353 -0.12006428 -0.026567787 -0.10413449
0003f0 13 9b 80 3c 7d 47 c5 bb 87 0c 85 bc 3e 03 9f bc
       0.015698945 -0.006020485 -0.016241325 -0.019410726

context_transformer_0/ffn_layer_0/intermediate_dense/einsum/Einsum;context_transformer_0/ffn_layer_0/intermediate_dense/Relu;context_transformer_0/ffn_layer_0/intermediate_dense/add f4 [32]
000000 54 e5 a1 be 88 9f 92 be 28 25 62 be 60 db dc be
       -0.31620276 -0.28637338 -0.22084486 -0.4313612
000010 73 54 e3 bd 50 36 e9 be 06 e2 9f be a5 99 6a be
       -0.11100092 -0.4554925 -0.3122713 -0.22910173
000020 0c a1 d2 bd 46 35 c9 be 6e 9b 8b be a8 6e 04 be
       -0.102846235 -0.39298457 -0.2726702 -0.12932837
000030 5f 67 50 be 4a 3d ab be 7e 0f df be 0d e6 9c be
       -0.20351933 -0.33445197 -0.43566507 -0.30644265
000040 8a e6 bf be e1 ec 8b be 45 57 da be a9 4a d3 be
       -0.37480575 -0.27329162 -0.42644706 -0.412679
000050 fa bf a6 bd 2d 28 8f be 19 5b 6f be 56 97 3c 3b
       -0.081420854 -0.2796034 -0.23374595 0.0028776727
000060 92 11 78 be 1d 0a e5 be a2 cf c4 bc 44 95 de be
       -0.24225453 -0.44734278 -0.024024788 -0.43473256
000070 5c 77 9b be a6 73 80 be 61 53 fc be bc 74 ca bd
       -0.303645 -0.25088233 -0.49282363 -0.098855466

context_transformer_0/attention/norm/mul;context_transformer_0/attention/norm/add;context_transformer_0/ffn_layer_0/intermediate_dense/einsum/Einsum;context_transformer_0/ffn_layer_0/intermediate_dense/Relu;context_transformer_0/ffn_layer_0/intermediate_dense/add f4 [32, 32]
000000 b2 07 6c 3e 04 32 19 3e 63 cd 99 3d 6d 85 08 3e
       0.2304981 0.14960486 0.075098775 0.13332148
000010 3c 49 39 be 17 af 3e 3d 7c 20 d2 bd 4c 8f df bb
       -0.18094343 0.046553697 -0.10260102 -0.0068225022
000020 7e 6b 64 bd c2 14 3c 3e 40 59 58 bd 27 8f 58 be
       -0.055766575 0.18367293 -0.05281949 -0.21148358
000030 3e 03 b2 bd 77 da c9 bd d0 63 1d 3e aa 25 51 bc
       -0.08692025 -0.09856122 0.15370107 -0.0127653275
000040 5e ac 82 be 96 6f 9b bd 58 c0 df 3d 23 c1 af bd
       -0.2552213 -0.07589643 0.109253585 -0.0858176
000050 29 f3 ec 3d f5 d9 88 be 45 00 8f bd 47 4c 62 3c
       0.115698166 -0.26728788 -0.06982473 0.013812131
000060 f8 38 2e 3d 87 e6 1c be 1b 5e 84 bd b4 82 5c 3d
       0.0425348 -0.15322314 -0.06463262 0.053835586
000070 32 c0 30 be c7 7b 01 bb 5a 83 cd 3c b9 de 59 3d
       -0.17260817 -0.0019757615 0.025087047 0.05319092
000080 5c 64 fb 3c 91 cc db bd 0f 43 b6 3d fa 3b 98 bd
       0.030687504 -0.10732377 0.08899509 -0.074333146
000090 89 83 9e 3b af d0 3d be 12 b2 2b bd 51 bb 82 bd
       0.0048374576 -0.18536638 -0.041917868 -0.06383384
0000a0 17 21 e3 bc 44 ed 11 be 53 b0 09 be 24 eb 60 be
       -0.02772574 -0.14250666 -0.13446169 -0.21964699
0000b0 9d ac 5a be 00 0c 9e 3e e4 39 f3 3d 20 74 ea bc
       -0.21354909 0.3086853 0.11876276 -0.028619826
0000c0 fd 98 fd 3d 65 68 44 3e d4 0b bc bd ef 8f 26 be
       0.12382696 0.19180448 -0.091819435 -0.16265844
0000d0 20 94 84 3d 4a 48 37 bc 6d 58 9d be cc a6 a7 be
       0.06473565 -0.011186669 -0.30731526 -0.32744443
0000e0 cb ce 78 3e cf 8c af 3d 12 7f d7 bc de 7d a6 bd
       0.24297635 0.08571779 -0.026305709 -0.08129476
0000f0 5e 29 f1 bd 23 8c 86 bc c8 b3 4c 3e e4 fd 3f 3d
       -0.11775468 -0.016424244 0.19990456 0.04687299
000100 2c bf 55 3e ec a2 ca bd 53 60 c0 3b 67 15 08 bb
       0.20873708 -0.09894356 0.0058708577 -0.002076471
000110 76 51 0a bd dd 7c 8c bd c6 6e 4d 3d c2 66 d7 3d
       -0.033769093 -0.06859753 0.05015447 0.10517646
000120 0b aa dc 3d ab 3b 1f 3d 2c cc b9 bc 25 57 a9 be
       0.107746206 0.038875263 -0.022680365 -0.33074299
000130 7c 28 1d bf d2 0a 52 3e f8 6d 1a be b0 37 51 3e
       -0.613899 0.2051194 -0.15081012 0.204314
000140 3e 31 6e 3e d6 bc dd 3d 68 94 3f bd 82 92 10 3e
       0.23260972 0.10827033 -0.04677239 0.14118388
000150 e1 00 4a 3d 22 7b 6b bd 49 0f 4c 3d 81 bc ba bd
       0.049317244 -0.057490475 0.049819265 -0.091179855
000160 a0 82 31 be 46 0f 47 bd 72 82 73 bd 7b 3f d0 3e
       -0.17334986 -0.04859855 -0.059450574 0.40673432
000170 54 13 37 be 5e 19 dc 3d a7 a7 dd 3d f2 85 47 3e
       -0.17878467 0.10747026 0.10822993 0.1948469
000180 a3 f6 c4 3d 53 21 98 be fb 1f 97 3d ee 32 8d 3b
       0.09617355 -0.29712924 0.07379147 0.00430905
000190 aa 6b 80 bd 5d 4e 9b bd 8e 72 fa 3c 86 ae af bb
       -0.06270535 -0.07583306 0.030572202 -0.005361381
0001a0 d1 22 44 3e 6a 84 42 be 87 3b a0 be 7b 16 ad 3d
       0.19153906 -0.18995824 -0.31295416 0.084515534
0001b0 0e e8 87 3d 72 a8 4d 3e a7 5b 42 3c 6f 7a ff bd
       0.06636058 0.20083788 0.011862672 -0.12474524
0001c0 41 6f 42 bd 74 35 b0 3d c1 42 7b bd ca 3b f2 3d
       -0.04746938 0.086039454 -0.06134296 0.1182781
0001d0 93 62 98 3e 33 10 cf bd 85 02 cd bd fb 4d aa bc
       0.29762706 -0.10110512 -0.10010246 -0.020789137
0001e0 b9 40 72 3e 95 00 f2 bc 45 33 83 bd 6f 58 fb bc
       0.23657502 -0.029541293 -0.06406263 -0.030681817
0001f0 26 8e 58 be 32 41 11 be 30 36 e8 3d 23 f7 76 3e
       -0.21147975 -0.14185026 0.113384604 0.24117713
000200 da 95 05 3e b0 76 de 3d f1 39 ee 3d 96 ca ae 3d
       0.13045445 0.108624816 0.11632145 0.08534734
000210 8a 2c 15 3e 9f 35 8a bc 2e 91 d1 bd b1 5a a8 bc
       0.14567772 -0.016871272 -0.10232769 -0.020551058
000220 b3 8f af 3d e2 d0 87 bd d1 f9 26 be ea 08 48 3b
       0.0857233 -0.06631638 -0.16306235 0.0030522891
000230 e1 d6 1f bc 94 65 56 3b e5 7f 2e 3e e2 95 9b bd
       -0.009755821 0.0032714354 0.17040975 -0.07596947
000240 3a 8c 1b 3c 38 fa 5d 3e 1b 60 11 bc 20 29 d5 bd
       0.009493882 0.21677482 -0.008873011 -0.104082346
000250 ce 2a c1 3b e9 35 78 bd 48 a6 2d 3e 51 bd 33 bd
       0.0058949953 -0.060598288 0.16957963 -0.043881718
000260 6f bb a6 bd 4c a0 ba bd c7 f4 17 bd e7 37 12 be
       -0.08141219 -0.091126055 -0.037098672 -0.14279138
000270 9b 0d 04 be 63 cc c1 3d c9 e1 b2 bc 1a f9 bf 3d
       -0.12895815 0.09462812 -0.021836178 0.09373684
000280 0e 2f 2d be e0 12 66 bd 0f 7f ad bd d9 c7 d3 3d
       -0.16912481 -0.056170344 -0.084715 0.10340852
000290 d4 e2 b5 3b 37 d1 93 3c da 48 8e 3d 68 ce 75 3e
       0.0055507217 0.018044097 0.06947489 0.24004519
0002a0 dd 28 95 3d 8b 7b 87 bb 35 db 72 3d 2f 39 a2 3e
       0.07283185 -0.0041346005 0.059291083 0.31684253
0002b0 a7 ae 2c bd a2 7b 77 3e 2b 63 01 3e 27 6d 82 3d
       -0.04215875 0.24168256 0.12635486 0.063684754
0002c0 64 f0 a2 be 72 62 5a 3e 04 50 29 3d 71 74 77 bd
       -0.31824028 0.21326616 0.041336074 -0.06041378
0002d0 3c 0c 69 bd e9 e1 0a 3e 33 7d 9b 3e ee 8c a1 be
       -0.056896433 0.1356274 0.30368957 -0.31552833
0002e0 9d 83 b1 3c fe 4a 85 bc b2 3b bf 3d d0 c4 1d 3e
       0.021669203 -0.01627111 0.09337558 0.1540711
0002f0 db eb 07 3e 6a 55 33 be 11 e8 e7 bc 0b 47 47 3d
       0.13273565 -0.17513052 -0.0283089 0.048651736
000300 de 8b 96 bd 1f 0a 88 3e 0b ad 9a bb 86 28 d9 bd
       -0.07350896 0.26570222 -0.0047203354 -0.10603432
000310 9f 78 69 be 4d 00 b9 bd dd 26 09 3d e3 ee 02 be
       -0.2279992 -0.090332605 0.03348433 -0.1278644
000320 0f 70 bd 3d 98 ea 45 3e 4a 85 6a 3d 12 a0 0f 3d
       0.09249889 0.19327772 0.05725602 0.035064764
000330 fe 45 7f be 4e ba ee bb 37 78 28 3e 82 64 5c bc
       -0.24929044 -0.007285393 0.16452108 -0.013451697
000340 ba 86 2b be 9e a6 1e be 6c 2c eb bd 66 5f ba 3d
       -0.16750613 -0.15493247 -0.11483082 0.09100227
000350 58 aa d9 bd 25 1e fa bb 89 59 e7 bd 1c 75 f8 bb
       -0.106281936 -0.007632988 -0.11296374 -0.00758232
000360 0a f7 3c bd 4c d2 ac 3c 3d 4c e8 bd 35 aa 33 3d
       -0.046134032 0.021096371 -0.11342666 0.043863494
000370 b3 68 6b 3d 78 82 ce 3d 85 b6 7a 38 65 b6 89 3d
       0.057472896 0.10083479 5.977463e-05 0.06724242
000380 89 43 14 3e 4d 2d d7 bd 17 64 32 3e 8f 0f 13 be
       0.14478888 -0.10506687 0.17420994 -0.14361404
000390 27 63 f8 3d 83 a2 91 be ea 76 4c bd 38 87 4c be
       0.12128287 -0.284443 -0.049918093 -0.19973457
0003a0 83 a2 da 3c 85 59 a0 bd bd 98 14 be f0 6d 3c be
       0.02668882 -0.078295745 -0.1451139 -0.18401313
0003b0 e0 20 41 be 68 2b 4f 3e 6f f8 19 3e 33 f9 05 3d
       -0.18860197 0.20231402 0.15036176 0.032708358
0003c0 65 5c ed 3d 67 87 49 3d 63 0a 8d be 8a 85 71 be
       0.115898885 0.049201395 -0.27546987 -0.23586097
0003d0 18 5a 86 3d 96 31 e6 bd 97 96 28 3e fb 5f 12 be
       0.06560153 -0.112399265 0.16463695 -0.14294426
0003e0 ce cf 23 bd b8 f5 d3 3c 11 fa 3d 3e 23 06 42 bc
       -0.0399931 0.025874004 0.18552424 -0.011842283
0003f0 6b b6 4e be cf 37 e8 bd 36 bd 84 3d c3 86 c1 3d
       -0.20186774 -0.1133877 0.064814016 0.09449532

context_transformer_0/ffn_layer_1/intermediate_dense/einsum/Einsum;context_transformer_0/ffn_layer_1/intermediate_dense/Relu;context_transformer_0/ffn_layer_1/intermediate_dense/add f4 [32]
000000 10 c4 12 be b6 88 22 3e 85 47 e6 3d 40 51 27 3e
       -0.14332604 0.15872464 0.1124411 0.16339588
000010 1d 72 e9 bd 42 ab 19 be a3 1c c3 be 74 11 f8 bc
       -0.113987185 -0.15006736 -0.38107786 -0.03028176
000020 c2 85 54 bd a6 9b fa 3d 86 a3 4e 3e 06 ac 16 3d
       -0.051885374 0.12236719 0.20179567 0.036785148
000030 32 e4 39 3e de ed 8d bd 38 a2 2a be 57 c4 10 bd
       0.18153456 -0.06930135 -0.16663444 -0.035343494
000040 56 90 57 be e4 ac 1c be 6d 16 da bd 7c 31 b0 3d
       -0.21051154 -0.15300328 -0.10648809 0.086031884
000050 b3 e4 06 be 1c 68 c3 bd 81 2f 94 bd 53 3d 3b 3e
       -0.1317318 -0.09541342 -0.07235623 0.18285112
000060 7f 5f e2 bd 01 b8 9a bd 69 3e 13 3e e1 dd d0 bd
       -0.11053371 -0.07554627 0.14379276 -0.1019857
000070 22 ee fb 3d cd a7 2a bd f8 cd f2 bd 86 89 9c bc
       0.123012796 -0.041663934 -0.11855692 -0.019108545

context_transformer_0/ffn_layer_0/norm/mul;context_transformer_0/ffn_layer_0/norm/add;context_transformer_0/ffn_layer_1/intermediate_dense/einsum/Einsum;context_transformer_0/ffn_layer_1/intermediate_dense/Relu;context_transformer_0/ffn_layer_1/intermediate_dense/add f4 [32, 32]
000000 2a 62 fa 3c 94 9c 35 3e 5e e6 31 bc 96 63 03 bc
       0.030564386 0.17735511 -0.0108581465 -0.008019349
000010 e8 93 37 3c a7 41 c3 bd 54 90 f6 bd 42 29 b1 3d
       0.011204697 -0.095340066 -0.12039247 0.086504474
000020 f3 4b a1 3c 7f 04 d3 bd 19 94 c7 bd be d5 69 be
       0.019689536 -0.10303592 -0.09745044 -0.22835442
000030 17 73 dc 3c 34 b7 2b bd a7 a8 41 3b 4f 26 26 be
       0.026910348 -0.041922763 0.0029549988 -0.16225551
000040 cf 4f 64 bd da f4 07 3e e8 75 60 3a fa 5d cf bd
       -0.055740174 0.13276997 0.0008562491 -0.101253465
000050 16 4f 29 3e 4a 45 6b be 51 66 dd bc ce 14 97 be
       0.16534075 -0.2297565 -0.027026327 -0.2950806
000060 da f3 d9 3d fa 08 8d b8 b8 25 f7 bd 78 88 0b be
       0.10642214 -6.725076e-05 -0.12067741 -0.13626277
000070 f2 ec 01 be 06 54 66 bd f5 15 16 3e 64 c6 eb bd
       -0.12688044 -0.056232475 0.14656813 -0.115124494
000080 da ca 82 3e 7b cb 68 3e 5a 65 ac 3a db 00 a6 3d
       0.25545388 0.22733872 0.0013152764 0.08105632
000090 a3 09 80 be a6 ee 23 3d 1f 5a 01 be fe ea 4d 3e
       -0.25007352 0.040022515 -0.12632035 0.20109174
0000a0 dc 03 75 3c 73 00 71 3e 87 c4 28 bc 4b 21 5a be
       0.014954533 0.23535328 -0.010300762 -0.21301763
0000b0 1d f3 b6 3c e2 34 25 bd 82 01 10 be 71 1d f4 3b
       0.022332722 -0.040333636 -0.14063075 0.0074497988
0000c0 99 29 45 be 48 30 dc 3d e8 7a 0c 3d b2 a0 ac 3c
       -0.1925415 0.107513964 0.0342969 0.02107272
0000d0 55 c3 72 3e 2e 64 59 be 6e 25 75 bd 89 96 40 be
       0.23707326 -0.21229622 -0.05985015 -0.18807425
0000e0 ca ac 2e be f0 b1 dc bd 6e 4a 90 3d 14 d8 da 3d
       -0.17058101 -0.107761264 0.07045446 0.10685745
0000f0 0c f2 2c be 96 51 18 3d ab 1f ec bb 1d 48 f7 3a
       -0.16889209 0.03718718 -0.0072059236 0.0018866096
000100 cd a8 b2 3d d4 60 a6 bd b8 d0 26 bc 3c 3c 07 be
       0.087236024 -0.08123937 -0.010181598 -0.13206571
000110 11 c2 93 be a4 61 80 bd 25 af 21 be b8 30 68 bd
       -0.28858998 -0.062686235 -0.15789469 -0.056687087
000120 c1 d0 b4 3d 04 3c f8 3d 5f e0 83 be 4c 0e b7 3d
       0.08828879 0.12120822 -0.2575712 0.08938274
000130 73 42 b3 3d 6d 9c 19 3e 27 30 9f bb 69 ed 07 bf
       0.087529086 0.15001078 -0.004858035 -0.53096634
000140 fe 5a 98 be 9f b7 05 3c 32 6c 2c bc 64 23 a9 bd
       -0.29756922 0.008161454 -0.010523843 -0.08258703
000150 16 31 26 3e f4 ce 16 be b4 af 35 be 83 c9 eb bd
       0.16229662 -0.14727384 -0.17742807 -0.11513045
000160 a2 f0 8a 3e 8d e2 ad 3c 31 c8 d4 bd d4 5d 80 bd
       0.27136713 0.021226192 -0.10389746 -0.06267896
000170 7f f8 8f be c6 f0 9a bd 6f 18 36 3e c7 6a 9d 3d
       -0.28119275 -0.07565455 0.17782758 0.07686382
000180 bd c9 09 3e f1 7c fb 3d 45 86 e7 bc a3 fb 26 bc
       0.13455863 0.1227969 -0.028262267 -0.010191831
000190 80 9f 31 be 68 43 4b bd 75 d4 98 3d 75 e9 46 3d
       -0.17346 -0.04962483 0.07462398 0.048562486
0001a0 40 8a 5a 3e 48 b3 11 3e e8 4b 60 be 01 22 35 3d
       0.213418 0.14228547 -0.21903956 0.04422188
0001b0 37 c6 78 bb 72 7e 36 bd e5 1b 4c bd 72 a5 07 be
       -0.0037959942 -0.04455418 -0.04983129 -0.13246706
0001c0 26 ef 82 bd ed 5c 8b 3e bc 1e 04 be 8e 05 4a 3c
       -0.0639327 0.27219334 -0.12902349 0.012330426
0001d0 c3 7f de 3d 21 de 00 be 1e a0 2c 3e 04 32 ba bd
       0.10864212 -0.12584735 0.16857955 -0.09091571
0001e0 a6 bc d0 bd 65 9d 49 bd ef 7f 15 be af f8 ca 3d
       -0.10192232 -0.04922237 -0.14599584 0.09910714
0001f0 64 f0 5b be c4 a6 26 3e b8 95 0d 3d 2d fc 44 3e
       -0.2147842 0.16274554 0.03456661 0.19236822
000200 d0 02 88 3c f8 7f d8 3c 8b e2 b5 bb 93 2b 88 b9
       0.016602904 0.026428208 -0.0055506877 -0.00025972407
000210 ea eb 33 3c c7 aa 36 bc 08 49 96 3c 5b 7d e3 ba
       0.010981539 -0.011149115 0.01834537 -0.0017356084
000220 ab 5b 49 3c 44 d3 05 3d 55 77 db bc 88 c1 6a bb
       0.012289922 0.03267218 -0.0267903 -0.003582092
000230 41 29 12 3b ed 19 a5 3c d4 be f3 3c 36 03 be bb
       0.0022302421 0.020153964 0.02975408 -0.0057987226
000240 e1 cb a4 3a 1b a3 1b 3b 7d 49 cf bc 09 03 f3 bc
       0.0012572968 0.0023748341 -0.025303597 -0.029664533
000250 6d ae cf ba c3 62 56 bc c1 0d 7a bc c6 92 12 bd
       -0.001584483 -0.01308507 -0.015262068 -0.035784505
000260 c5 c2 d9 3c cb fd 51 3b 4a 69 e6 bb 55 ff 86 bc
       0.026582131 0.0032042142 -0.0070315944 -0.016479174
000270 fd e1 90 bc 7c 80 f2 bc 3c 3c 44 3c 76 a1 c3 3b
       -0.017685885 -0.029602282 0.011977252 0.0059701754
000280 91 23 d1 3d dd 96 57 3e ff 9a 85 3c 98 68 c2 bc
       0.10211862 0.21053644 0.01630926 -0.023731515
000290 d5 83 a2 be bf 2c 0e 3e 32 c2 fd bc 89 83 31 bb
       -0.31741205 0.13884257 -0.030976389 -0.0027086458
0002a0 20 07 1f be 54 00 70 3e 1b 5e 01 3d 9b 63 9c be
       -0.15530062 0.23437625 0.031583887 -0.30544743
0002b0 64 b4 8b be 76 c8 24 be df e5 d9 3d c3 7a 6c 3d
       -0.27286065 -0.16092095 0.106395476 0.057734262
0002c0 79 0a 11 3e b0 74 8a 3e fc d6 e0 3d 20 26 13 bd
       0.14164151 0.2704215 0.10978505 -0.03592503
0002d0 40 e8 b3 3c f5 61 36 be f9 6e 3c 3e 55 83 02 3e
       0.021961331 -0.17810805 0.18401708 0.12745412
0002e0 8f 58 73 3e 1c 1d 1c bd 36 8c 53 bd 92 3b 44 be
       0.23764251 -0.0381137 -0.051647387 -0.1916335
0002f0 23 18 26 be 75 f5 93 3c ab 1c 59 bd fd fc 86 bc
       -0.16220145 0.018061379 -0.053005856 -0.016478056
000300 43 5a 21 bc 87 da ab bd 2b 87 05 bd eb df 30 3b
       -0.00984818 -0.0839129 -0.03259961 0.0026988934
000310 9c 4c 90 3c 5e dd 55 bb e0 be 40 be 44 cd 0f 3e
       0.017614655 -0.0032633166 -0.18822813 0.14043146
000320 cd fb c5 bd 56 4c 24 be cc 82 05 3d e6 85 09 bf
       -0.09667168 -0.16044745 0.03259544 -0.5371994
000330 06 19 55 be 3a c8 c8 bd 2e 44 c6 bc 3a a7 30 3d
       -0.20810327 -0.09803815 -0.024202432 0.04312823
000340 15 dc 53 bd a0 05 bc 3e 10 cb 7b 3c d1 73 d7 bd
       -0.05172356 0.36723042 0.015368238 -0.10520137
000350 6a 15 d2 bd d7 19 83 3d 3a 4d c0 3b 83 34 18 3e
       -0.10257991 0.06401413 0.005868581 0.14863782
000360 99 d4 2b 3d c7 1b b9 bc 66 a0 90 3d f4 13 d1 3d
       0.041950796 -0.022596253 0.070618436 0.10208884
000370 28 94 fa 3d 16 1d c8 bd 30 74 e8 3d 72 28 c6 bd
       0.1223529 -0.09771173 0.11350286 -0.09675683
000380 84 47 31 bd 4b c3 76 3e 22 e2 83 bc c5 12 d1 3c
       -0.043281093 0.24097936 -0.01609904 0.025521645
000390 34 c3 97 be dc 4e 03 3e bf 3f 0a 3e 93 9a 08 be
       -0.29641116 0.12823051 0.1350088 -0.13340215
0003a0 f4 e6 90 3c 7e 6c 78 3d 6b c4 18 be 0a 7e e3 bd
       0.017688252 0.06065034 -0.14918678 -0.111080244
0003b0 b8 c7 a1 3d 6e 7c b0 3c 84 71 2b 3e 6b 98 70 be
       0.078994215 0.021543708 0.16742522 -0.23495643
0003c0 df 4b 6b be 7e 1e 2f 3e ae 98 04 3e 19 30 82 3d
       -0.22978161 0.17101476 0.12948868 0.0635683
0003d0 d7 79 ff 3d c4 61 56 be 90 b7 8b be ff de 67 be
       0.12474411 -0.20935732 -0.27288485 -0.2264366
0003e0 7f ab 26 3e 24 da 71 3d 8f cb 24 be 9a 9d 8c bd
       0.16276358 0.059045926 -0.16093276 -0.068659976
0003f0 7f 42 db bd 09 91 77 3e 12 f4 48 3e 32 4f 07 bd
       -0.107060425 0.2417642 0.19624355 -0.03303451

context_transformer_0/ffn_layer_2/intermediate_dense/einsum/Einsum;context_transformer_0/ffn_layer_2/intermediate_dense/Relu;context_transformer_0/ffn_layer_2/intermediate_dense/add f4 [32]
000000 95 ba e5 3c fa cd cb bd 78 8c 28 3e 83 09 77 bc
       0.02804307 -0.09951396 0.16459835 -0.015077951
000010 24 d0 42 bd 1f c2 04 3e 6c aa b4 3c 7a 50 d8 bd
       -0.04756178 0.12964676 0.02205392 -0.10562225
000020 45 7d a3 bd f6 f4 1c bd 0c 44 00 be cd c2 81 3e
       -0.07982878 -0.03831955 -0.12525958 0.25343934
000030 6e e3 0f 3e fc 10 be bd 5e 5e 6f 3e 33 20 17 be
       0.14051601 -0.09280583 0.23375842 -0.14758377
000040 bc 8f 3e 3e 01 61 83 3e c5 1f 28 3c 38 62 c4 bd
       0.18609518 0.25659946 0.010261481 -0.09589046
000050 be 6b df 3d 81 c2 cd 3c ae f6 32 3e 60 6c 20 bd
       0.10909222 0.02511716 0.17476913 -0.039165854
000060 64 ab 36 be 21 39 fc 3c 6b b9 c6 be 13 86 84 3e
       -0.17838818 0.03078896 -0.38813338 0.2588354
000070 7d 9c 89 bd 93 a5 4f 3e db 9c 97 3d 24 4e 99 3a
       -0.06719301 0.20278005 0.07402965 0.0011696261
